data/model/ticlnet_layerPool.onnx (onnx, 38810 bytes, 10 tensors)

1 f4 [4, 1, 5]
000000 f8 0a 6d 3f 27 c0 5e bf ef 98 db 3e 4e 33 28 3f
       0.9259486 -0.8701195 0.42890117 0.65703285
000010 2d f9 8b bf 19 a2 6d 3f 7e 9f 1b bf 13 14 69 bf
       -1.0935417 0.92825466 -0.6079024 -0.91046256
000020 2e 95 2b 3e 4a 14 2a 3f c6 ed 6d 3f 2b 94 94 3f
       0.16756126 0.6643721 0.9294094 1.1607717
000030 a5 2d 9d 3f 06 d2 1f 3f 7b df 92 3f 7c 22 ff be
       1.2279555 0.62429845 1.1474451 -0.49830997
000040 fa ca 46 3f d2 41 20 3f b8 ad 4a bf 10 e8 42 bf
       0.7765347 0.62600434 -0.79171324 -0.7613535

2 f4 [4]
000000 26 87 f8 bc d1 81 89 bc da 7a 22 3e 38 fd 64 3d
       -0.030337881 -0.016785534 0.15867177 0.05590555

3 f4 [4, 4, 4]
000000 80 29 34 3b a4 48 39 be ca 07 7f be 6a d8 36 be
       0.0027490556 -0.18094116 -0.24905315 -0.17855993
000010 00 ad 5e 3e be 6f 18 3e 64 05 51 3e 24 ba 15 3e
       0.21745682 0.14886376 0.20412213 0.14621788
000020 c4 ea f0 bd a8 0d fb 3d f8 6c 2f be 48 a5 60 bd
       -0.11763528 0.12258464 -0.17131412 -0.054845124
000030 cc 73 20 be c2 ad 1c be c2 35 64 be c8 b2 46 3d
       -0.15669173 -0.15300658 -0.22286132 0.048510343
000040 8b b0 6f 3f f9 9a 90 3f d3 b4 72 3f a9 17 8d 3f
       0.9362876 1.1297294 0.94807166 1.1022846
000050 72 d3 65 3f 05 f0 6d 3f 84 e9 84 3f fa 7d 86 3f
       0.89775765 0.92944366 1.0383763 1.0507195
000060 3f 3a 1c be d8 7d c7 bd 03 3c c4 bc 81 9d 8d be
       -0.15256594 -0.097408 -0.023954397 -0.27659228
000070 67 32 23 3f 3a c9 3a 3f 17 ce 21 3f 6d b6 5b 3f
       0.6374878 0.729633 0.63205093 0.85825235
000080 d0 f3 f4 3d c0 dd cd 3d 80 a0 84 3c c4 82 a2 3d
       0.11960566 0.10052061 0.016189814 0.07935098
000090 9e 0a 6a be 5c 9d b5 3d 9a a9 02 be 88 d8 1f be
       -0.22855613 0.088679045 -0.1276001 -0.15609944
0000a0 0c 40 36 be 22 e4 1c 3e 8c 74 b3 bd 08 df 1d be
       -0.1779787 0.15321401 -0.08762464 -0.15417111
0000b0 a4 65 f8 bd 8c 7d 9b bd 3e f5 17 be 22 34 5e 3e
       -0.121287614 -0.075923055 -0.14839646 0.21699575
0000c0 4b de ea bd 42 6d 83 3c a4 18 22 3e 4f 65 39 bd
       -0.1146818 0.01604331 0.15829712 -0.04526263
0000d0 24 61 8e bd d1 95 09 3d 84 ab 41 be 2c 6b 47 be
       -0.06952122 0.03359014 -0.18913084 -0.19474477
0000e0 80 aa d5 3e 4f 3a 26 3f e8 6b 3f 3f 8b bb 16 3f
       0.41731644 0.6493272 0.74774027 0.5887992
0000f0 21 28 2e be 10 6a 5b 3e a0 ca c6 bd d7 f4 11 3e
       -0.17007495 0.21427178 -0.097066164 0.14253555

4 f4 [4]
000000 c2 3c 4e be eb 86 a6 3e 92 84 0a be c3 cc a4 3e
       -0.20140365 0.3252481 -0.13527134 0.3218747

5 f4 [4, 4, 4]
000000 ac 7e f0 bd f0 79 71 bd 20 23 cb bc 16 b9 53 3e
       -0.11742911 -0.05895418 -0.024797022 0.20676073
000010 0c 5f f2 be 13 0b fe be 42 6e d4 be 8f ea 16 bf
       -0.4733814 -0.49617824 -0.4149037 -0.5895166
000020 40 be d2 bd f6 00 24 be 72 1b 14 3e 74 06 36 be
       -0.102901936 -0.16015992 0.14463595 -0.17775899
000030 21 8c d2 3d 75 99 8c 3e 3d 9c a3 3e fa 7d 80 3d
       0.10280634 0.27460828 0.31955138 0.06274028
000040 04 5a e0 3d 3e b0 0a 3e 7c 66 0d be 5c b4 d7 3d
       0.10954669 0.13543794 -0.13808626 0.10532448
000050 f7 9d 05 bf 19 44 ba be ce 5f 96 be da da 1f bf
       -0.5219416 -0.3638008 -0.29369968 -0.62443316
000060 08 4b 78 be 50 2f 34 3e 02 c6 3a be aa 07 4b 3e
       -0.24247372 0.17596173 -0.18239596 0.19827142
000070 64 79 ae 3e 13 16 04 3e 53 bc 50 3e 9e af 38 3e
       0.3407699 0.12899046 0.2038434 0.18035743
000080 aa 59 2a be f0 92 65 be 62 f1 22 3e 46 ef 36 be
       -0.16635767 -0.22419333 0.15912393 -0.17864713
000090 aa e2 75 be f6 7f d8 be 4f 91 a8 be 6f 35 b5 be
       -0.24012247 -0.42285126 -0.32923362 -0.3539233
0000a0 d4 a5 c5 bd d4 86 a3 3d b0 8d 71 be a4 f7 c2 3d
       -0.0965077 0.07984701 -0.23589206 0.0951989
0000b0 fd 3b 9b 3e 45 84 04 3f 2e c1 d0 3e 43 1b 4c 3e
       0.30319205 0.5176433 0.40772384 0.19932275
0000c0 0a cb 77 3e 64 de 7a 3e 80 ef 13 3b d0 fb ff bd
       0.24198547 0.24498898 0.0022573173 -0.12499201
0000d0 f6 99 b7 3e 1f 47 76 3e a9 ad dd 3e dc 0c 25 3e
       0.3585965 0.24050568 0.43296555 0.16118187
0000e0 30 af c0 bc 98 a1 9c bd a4 c3 fb bd 3c b6 3e be
       -0.023521036 -0.07648009 -0.12293175 -0.18624204
0000f0 20 e8 9f 3e 1c e7 de 3d e7 02 c8 3e cd c3 88 3e
       0.31231785 0.10883924 0.39064714 0.26711884

6 f4 [4]
000000 3d 86 3f 3e 28 53 12 3e dc 32 10 be da 99 b0 3e
       0.18703552 0.14289534 -0.14081901 0.3449238

7 f4 [16, 80]
000000 18 38 1b bd 3d d0 04 3c b8 04 a3 bc 87 59 05 be
       -0.037895292 0.0081062885 -0.019899711 -0.13022433
000010 ee 4e 91 bd f4 b6 f6 bd a5 75 f1 bd 52 53 d2 bd
       -0.07095133 -0.12046614 -0.11790017 -0.10269798
000020 ce 31 57 bd e6 8f d5 3c 57 25 c9 bd 47 4a 5f 3d
       -0.05253773 0.026069593 -0.09821575 0.054514196
000030 e2 43 94 3c 48 b3 85 bd d1 05 d2 bd a5 20 c6 bd
       0.018098775 -0.06528336 -0.10255016 -0.09674195
000040 3f 27 4f bb be d3 08 bd dc f8 9b 3c 45 c7 ae bd
       -0.0031609086 -0.033405058 0.019039564 -0.085341014
000050 a5 34 f8 bd 22 f0 9f bd 6a 86 35 3d 21 49 3e 3c
       -0.12119416 -0.078094736 0.04431764 0.011614115
000060 18 41 05 be 09 8c b6 bd e9 ac b3 bd 6e f5 a4 3d
       -0.13013113 -0.08913428 -0.08773214 0.080546245
000070 f6 17 cb bd b2 df c6 bd 63 5d 2e 3d 27 da ac bc
       -0.099166796 -0.09710635 0.04256953 -0.021100117
000080 6c 30 ca bd a4 96 18 3d 03 9f 0b bd f9 9d 85 3b
       -0.09872517 0.037253037 -0.034087192 0.0040776697
000090 86 2f d2 bb 66 21 92 bc 08 cf ea 3c d0 be 96 bd
       -0.0064143566 -0.017838191 0.028663173 -0.07360613
0000a0 52 92 bd 3d 23 f5 42 bd 8e e8 8a 3c 15 dc 6e bc
       0.09256424 -0.04759706 0.016956594 -0.014578839
0000b0 83 6a e3 bc 89 d4 a8 3d 0f 14 df 3d e6 68 44 bb
       -0.02776075 0.08243663 0.10892498 -0.002996975
0000c0 3d 23 1f bd f0 f0 d9 3d 7f 8d 16 3e cb 34 dd 3d
       -0.038851965 0.10641658 0.14702414 0.10801085
0000d0 45 25 9a bd dd f1 bb bd 41 51 9b bd 76 0c 95 3d
       -0.0752664 -0.09176991 -0.07583857 0.07277767
0000e0 a1 b6 59 3d e2 ab 76 3d 8e 60 20 3d ef 49 14 3e
       0.053152684 0.060222514 0.03915458 0.14481328
0000f0 29 1d 2c bd 79 75 95 bd 1d 8f 48 3d 47 2a 95 3d
       -0.042019997 -0.07297797 0.04896461 0.072834544
000100 b9 24 43 bd 3d 44 aa bd a4 44 0a be 45 9f 13 3d
       -0.047642443 -0.08313797 -0.13502747 0.036040563
000110 61 04 6e 3d 83 cf 9c 3d 09 a5 90 bc 12 87 fa bd
       0.058109645 0.07656767 -0.01765682 -0.12232794
000120 c5 8e 95 3c 09 e7 51 3d 4c 70 d4 bd 11 7b 0e bd
       0.018256554 0.051245723 -0.103729814 -0.034785334
000130 4e de d4 bd ca 82 40 bd 45 68 2b ba 6d c8 f9 bc
       -0.10393964 -0.04699973 -0.00065386697 -0.030491078
000140 71 90 e9 bc c4 d1 e3 3c de 08 80 bd 69 68 dd bc
       -0.028511258 0.027809985 -0.06251691 -0.027027326
000150 86 e4 b8 3d 77 65 a7 3c 61 95 be bd c1 65 ed bd
       0.090279624 0.020434124 -0.093058355 -0.11591674
000160 af c1 95 bc fe b6 7a 3c cd 8a 3a bc 6f 09 a0 bd
       -0.018280832 0.015302418 -0.011385632 -0.07814299
000170 c0 56 3d 3d 24 b9 1b 3d 35 27 a9 3d 04 44 3f bd
       0.04622531 0.03801836 0.08259431 -0.046695724
000180 c4 ce e7 bd 9b d5 60 bd b8 c2 9b 3b cb 7a 00 be
       -0.11318734 -0.05489121 0.004753437 -0.12546842
000190 7e c6 41 3d 9b 2b cc bd 94 12 31 bd b6 b5 3d bd
       0.047308438 -0.099692546 -0.043230608 -0.04631587
0001a0 e7 3c bb 3d fb 7d b9 bd 7e 17 5a 3d 78 2a 3c bd
       0.091424756 -0.09057232 0.05324506 -0.04593894
0001b0 2f 64 a0 3d 7b 52 8a 3d a0 b0 05 3b dc 35 9f bd
       0.078316085 0.06754013 0.0020399466 -0.07773945
0001c0 12 74 d2 bd c4 bc 46 3d a0 e4 fb bb 5b 34 96 3c
       -0.10276045 0.048519865 -0.0076871663 0.018335512
0001d0 81 4c c0 3d 42 a4 46 3d 3b cd f0 bd 9d 3f 3c bc
       0.09389592 0.048496492 -0.117578946 -0.011489776
0001e0 c8 fb 0f bc a0 d5 00 bd e0 86 18 3c a0 e2 90 bd
       -0.008788057 -0.03145373 0.0093095 -0.07074475
0001f0 b8 65 64 bc e8 5e 8c 3d 14 e8 d7 bc 48 21 59 bc
       -0.013940267 0.068540394 -0.02635578 -0.013252564
000200 86 29 d9 3d 5c 01 a4 3d 28 e2 07 3d 90 db a1 bd
       0.10603623 0.08008072 0.033174664 -0.07903206
000210 2a 23 03 bd fc e9 33 bd 08 76 8d 3d 20 8e b5 3b
       -0.032015957 -0.043924317 0.06907278 0.0055406243
000220 b8 c6 a4 3c b0 43 a6 bc b0 d1 2b 3d 53 72 bb bd
       0.020114288 -0.020295948 0.04194802 -0.09152665
000230 89 72 3c 3d 2f de ba bd a1 f8 26 3d d5 aa 9c 3d
       0.046007667 -0.091244094 0.040764455 0.07649771
000240 2b 6c 3d bd 36 46 c5 ba 99 01 ac bd d7 55 b6 bd
       -0.046245735 -0.0015050832 -0.08398742 -0.089030914
000250 dd f3 18 3d 3f 66 fb bd b0 eb dd bd 5c 15 fd bd
       0.03734194 -0.12275361 -0.108359694 -0.123575896
000260 26 d6 61 bd 19 ce 80 bd be dc 28 bc 0b 4b 89 3d
       -0.05513587 -0.0628931 -0.010306535 0.067037664
000270 a9 9a ef bd e3 a5 73 bc 1d 59 69 bd cd 66 ae 3d
       -0.11699421 -0.014871093 -0.05696975 0.085157014
000280 35 a3 07 be 49 0d a1 bd b3 0b 2e be 46 21 f2 bd
       -0.13245852 -0.07863862 -0.1699665 -0.11822753
000290 86 60 7d bd db 6a 27 be 03 39 ec bc 88 5f 6a bd
       -0.06185963 -0.16349356 -0.028835779 -0.057220012
0002a0 90 54 07 bd 8e 2d 6a 3b 1a 40 f3 bd d8 4e a8 3d
       -0.03303963 0.003573272 -0.11877461 0.08218163
0002b0 dd 59 05 3e 18 ca d3 bc 71 34 cf bc 7b d9 bf 3d
       0.13022561 -0.025853202 -0.02529356 0.09367653
0002c0 d4 72 9f bb 36 e9 8f ba af 12 45 bd 00 b0 12 3d
       -0.0048659835 -0.0010979536 -0.04811352 0.035812378
0002d0 d0 48 04 bd 9f aa f3 bd da fe 08 be 0c 8d 23 be
       -0.032296002 -0.11897778 -0.13378468 -0.15971774
0002e0 10 ca 02 be 73 17 e6 bd 79 50 4c bb 8b 0b 30 3d
       -0.12772393 -0.11234941 -0.0031175895 0.04297976
0002f0 2d ce c6 bc d1 09 18 3d b6 9f 52 3d 08 86 11 bd
       -0.024268234 0.037118737 0.051421843 -0.035528213
000300 1d ba 4c bd 79 b0 cb 3d 14 a8 76 bc ec cd e3 3b
       -0.04998218 0.09945769 -0.015054721 0.006952038
000310 b8 92 d3 bd b5 57 68 bc b5 d1 98 3d d0 10 b0 bd
       -0.10330719 -0.014181067 0.074618734 -0.08596957
000320 fb ca b2 bd 1d 4a 18 3d 61 45 28 3d 54 dc ff bd
       -0.08730122 0.037180055 0.04108179 -0.12493196
000330 3e a0 08 3c 3f 91 a6 bd 2b 96 be bd 0f ad 80 bd
       0.008338986 -0.08133172 -0.09305986 -0.06283008
000340 d2 ed a1 b8 10 38 48 bd 8d 26 b4 bd 9b e3 86 bb
       -7.721376e-05 -0.04888159 -0.087964155 -0.004116488
000350 67 09 ae 3d a5 f8 74 bd dc 12 8e bd 0e f1 c9 bc
       0.08497887 -0.05980744 -0.06937191 -0.024651077
000360 36 82 0a 3d a5 0c ba 3d e1 81 a8 3d e7 3e 44 3d
       0.033815585 0.09084443 0.082278974 0.04791155
000370 3a b3 38 bd e2 fd 63 3c 0b aa 7e 3d 0c 82 2a bd
       -0.0450928 0.013915511 0.062173884 -0.04162793
000380 66 2c ca bd 4e cd 98 bd a4 f2 79 3d cc 5a 68 bd
       -0.098717496 -0.07461034 0.061022416 -0.056727216
000390 ea 87 2e 3d a7 2e ca bd 95 aa c2 bd a4 bf 44 bd
       0.042610087 -0.098721795 -0.09505192 -0.048034325
0003a0 f2 4b 81 bd d1 16 15 be da 72 3e bd 09 1f 76 bd
       -0.063133135 -0.14559485 -0.04649625 -0.06008819
0003b0 be 21 18 3d a2 f6 ff ba 1c b6 28 3d f7 ca dc bd
       0.037141554 -0.0019528458 0.041189298 -0.107809
0003c0 95 af 10 bf 79 e7 ac be 02 ae 88 be 82 57 15 be
       -0.56517917 -0.3377035 -0.26695257 -0.14584163
0003d0 01 a3 1b be 4d fa 8d be 99 9c 61 be 0f 7f 97 be
       -0.151989 -0.27730027 -0.22032394 -0.29589126
0003e0 33 67 e2 be a2 69 48 be 89 27 e0 b9 a2 fa aa 3e
       -0.4421936 -0.19571546 -0.00042754065 0.33394343
0003f0 8f ed ed 3e 1e 15 01 3f 88 7c 0b 3f 74 0b b1 3e
       0.46470305 0.5042285 0.54486895 0.3457905

8 f4 [16]
000000 73 d3 6f 3d bc 3e 93 3d c5 11 00 be 0f 73 4d 3e
       0.058551263 0.071897 -0.12506779 0.20063423
000010 02 a3 5c 3c 54 0d 93 3e e8 14 02 bc 00 44 ba b8
       0.0134665985 0.28721106 -0.007939555 -8.881837e-05
000020 3c ca a6 bd 47 9e 7c bd bc 33 24 3e 6e 96 ed 3c
       -0.08144042 -0.061674383 0.1603536 0.029002395
000030 90 fb 15 bd ed 39 d3 bd 4b bd e9 bd 58 89 aa bd
       -0.03661686 -0.10313783 -0.11413058 -0.083269775

9 f4 [4, 16]
000000 01 f4 8a bd 51 f4 5e 3e de d4 e5 bb 55 4f 5e bf
       -0.06784821 0.21772887 -0.007013901 -0.868398
000010 4b ee 8d 3e 3e 6d 26 bf a0 2f 17 be bc 7d 67 be
       0.27720866 -0.6501044 -0.14764261 -0.22606558
000020 f0 62 e5 bd a9 13 0a 3e e6 86 67 3e 86 71 07 be
       -0.112005115 0.13484062 0.22610053 -0.132269
000030 66 66 05 3e ad e1 53 3e 94 f5 f0 bd d8 e8 30 3e
       0.13027343 0.20691557 -0.1176559 0.17276323
000040 e3 61 19 3e 6b 69 31 be 14 a2 8f be 83 89 51 bf
       0.14978747 -0.1732537 -0.28053343 -0.8185045
000050 2d db 19 3e 65 3e 2d bf 70 4b bb 3c 56 d8 16 3e
       0.15025015 -0.6767333 0.02286312 0.14730963
000060 83 d0 80 3d 00 4e 47 be 19 55 14 bd 0d b1 83 be
       0.062897705 -0.19463348 -0.036213968 -0.25721017
000070 a4 0f 9b 3d a8 d8 c5 3e f4 bb 3d be 19 09 2a bd
       0.075713426 0.38641858 -0.1852873 -0.041512582
000080 12 60 22 be b5 d5 0e 3e d1 45 69 3e 22 ec 46 3f
       -0.1585696 0.1394871 0.22780539 0.7770406
000090 2b 21 a0 bd a4 c7 82 bd c8 ca 68 bd 28 07 76 3d
       -0.07818826 -0.06385735 -0.056834012 0.06006542
0000a0 a2 fc 8a bd a8 3f 86 be 1f a9 62 bf 2c 27 01 3f
       -0.06786467 -0.2622044 -0.8853931 0.50450397
0000b0 40 97 86 3b f2 f2 32 3e cd b8 9f 3d 0e ee 6c 3c
       0.004107386 0.17475489 0.0779892 0.014461054
0000c0 e1 4f 92 3d 4c f6 2a bd a6 2b b1 bd df a8 23 3f
       0.07144142 -0.041738793 -0.086509034 0.6392955
0000d0 c2 15 02 bf 69 7c 4b 3f 34 48 35 be e0 11 81 3d
       -0.5081445 0.7948671 -0.17703325 0.063022375
0000e0 6e bc 95 3e 7d 3f b5 bd 8c 0d 9f 3e 65 21 02 bf
       0.29245323 -0.0885 0.31065023 -0.50832206
0000f0 2c 07 64 3e a0 67 18 bf 77 67 bc bd b7 0b 59 3e
       0.22268361 -0.5953312 -0.09199422 0.21195875

10 f4 [4]
000000 01 7d 82 be d7 41 92 3d 97 ea 80 be 43 ff 73 3e
       -0.25485995 0.07141464 -0.25178978 0.23827843
